Aufgabe 2/recommendation_model.npz (npz, 13311 bytes, 3 tensors)

user_factors f4 [4, 10]
00000000: 749c 4341 0a20 f240 fe5e 9541 d1c4 a641
00000010: eded c741 efb5 2441 7334 963f 01d3 9d41
00000020: 0a2e de40 7857 a441 7682 6441 adcc fc40
00000030: 4c50 3441 0081 bb40 fa04 14c0 813a 10c1
00000040: 03a7 9c41 5d16 cf40 c758 06c0 548d 9141
00000050: 01e4 86bf 1c58 a541 c526 4f41 2373 3b41
00000060: 4c60 2040 030a b141 ae98 be3f 0d6b 4041
00000070: e6fd 8a41 ce4b a7bd 1cd8 a241 37b5 8cc0
00000080: 4471 9dc1 2f3d a8bf 624f 2942 42b7 4541
00000090: d97a e541 87f9 3bc1 1fa5 1741 29f9 58c1
12.225697 7.566411 18.671383 20.846102 24.991175 10.294417 1.1734756 19.72803
6.94312 20.54271 14.281851 7.899985 11.269604 5.859497 -2.3128037 -9.014283
19.581549 6.47148 -2.0991685 18.194008 -1.0538331 20.668022 12.946965 11.71561
2.5058775 22.129889 1.4890344 12.026135 17.373974 -0.081687555 20.355522 -4.397121
-19.680305 -1.3143672 42.327522 12.357241 28.684984 -11.74842 9.477813 -13.56083

item_factors f4 [251, 10]
00000000: 33b2 e939 491b 50bc 2199 093c 74ec 173a
00000010: a13c 973c 733b 9c3a 9183 70bc 7c6f b43b
00000020: 982f f43a e317 893c 6f4a ac3b ad60 273a
00000030: 33aa d2bb 2c2e 99ba de9a 073c d9ad f13a
00000040: 8ed2 123c df0d 0fbb 6e1f 1c3b f5d8 d7bb
00000050: ee3b f53a c400 da3a c18d 93bb 0ced edba
00000060: a161 1e3c a02b 9c3b c78f 1e3c ed92 04bc
00000070: acf7 d337 0cc7 33bb 1cc8 853b 60ac 3fbc
00000080: fbd6 943b c4a6 3aba 61c9 883c 079e a13b
00000090: e35b 85bc 1b53 ed3b b46e 73ba f3d3 983c
000000a0: f5f7 89ba af10 893c 1e82 07bb c17b c93a
000000b0: d2c9 58bc 9417 8b3c c12b f93b 0315 823b
000000c0: 29d6 743c c6e9 e0bb 999b 4d3c 77b8 263c
000000d0: 9a52 f03b 6326 c8ba 914f 48bc bb60 68bc
000000e0: a1b9 bc3c cdcd 3e3a dd8e c93a 95bd 503b
000000f0: 775a e2ba 9adf 7d3c 2ed8 913a bede dcba
00000100: 2c15 47bc 2c71 7e3c dfeb 003c 8ffd 853b
00000110: a27b 913c ef63 efbb aa2c 44bb 5b4c 973c
00000120: a57a cc3a 6cda e03b 1f4b 40bc c1b1 6e3c
00000130: 9d3e 123c e10e 0e3b 8cda 2a3c af5e 4bbc
00000140: bb2b 0d3c aab7 693c 440a 093b 3e45 b6b8
00000150: d1f2 41bc 8354 0cbc 3cbb bc3c 1e07 b8bb
00000160: 2885 5fbb bc4d 413c a864 dc3b 1925 50bc
00000170: 7899 fe39 bbdc 323b 06c8 673c 45b5 c73b
00000180: fa94 87bc ccd8 243c 3d0f feba 18ff 913c
00000190: b0af 0c3c 6c97 493c 129c e53b 0733 4ebb
000001a0: 0e7f 31bc 6dd3 1cbc 20e8 d13c f888 e43a
000001b0: 4708 e2bb e17c 913b 20ed 2e3c 8d61 273c
000001c0: 8a1b 8c3b 2779 9b3a 2c23 57bc 8a2c 3bbc
000001d0: 02f9 c43c 8717 3cba f305 25ba 9494 c73b
000001e0: a22c 1c3c aaff 093c 8b2f f63b 9dbc 36bb
000001f0: 3748 4abc 096d 28bc 62ae ce3c 3c6a 96b8
00000200: 67b1 d9b9 7b1a cc3b 7036 dcb9 5a64 853c
00000210: 4545 bb39 dd27 aa3b 82a5 62bc 8a08 983c
00000220: 70d1 ee3b 4b67 deba ff5c 593c ba48 e5bb
00000230: 2fb3 583c 5dac 3b3c 3477 953b 066b b0bb
00000240: ed93 58bc 660c aebb b4f7 b93c 733b a9ba
00000250: a210 a3bb 0d35 1e3c 3a47 3a3c e960 60bb
00000260: 49b3 e33b 6dfb fc3b f04e 433b ab9a 20bc
00000270: 0976 263c d163 ec3b 37da d938 4c82 ba3c
00000280: 8ce0 2e3b 9dfd 68bc e00f 8f3b 9615 f73b
00000290: 265b 803c 2547 47b9 33c2 6abc fc1e 173c
000002a0: 9166 d93a 3b55 573c 278b c13a aa41 72bc
000002b0: 27b5 eb3a ebd4 823b b0a2 793c c883 833b
000002c0: 7293 4bbc c588 6c3c bb33 23bb d7d8 703c
000002d0: e14e c33a 5280 38bc 6ef9 b63b 5f7f 043c
000002e0: f54d 8e3c 33b7 c2ba 1907 7abc ee48 ab3b
000002f0: 623d 873a dc9b 613c 3c8e 3e3b 6074 86bc
00000300: 9828 183b c5d3 863b f5ef 653c a43b c13b
00000310: 2f04 6ebc b90e da3b cbf1 1e3b a84a a63c
00000320: 5541 12bb 8515 58bc dc08 fe3b 6e6a 29ba
00000330: 0440 9d3c 5dee 6939 3ae7 63bc cb45 b33b
00000340: 7e72 993b 9f62 9b3c 59a6 d338 ee6d a23c
00000350: aca2 2dbb aef4 993b fae7 07bb 8b6e 8d3c
00000360: 9dbb 8d3c 325c dcbb cf84 683c 3637 76bc
00000370: 277e 0f3b 916e 72bc 4797 053c c375 093b
00000380: 9a13 863c bf9f b93b 4dfc 5dbc 3fb5 e33b
00000390: 6263 3cbb eebb 7f3c 580d 9a3b 11cb 53bc
000003a0: 2261 f23b c4a6 0b3b fdca 883c 11c4 f03a
000003b0: 13c3 84bc adcc d33b 84a6 803a 7d44 743c
000003c0: 204e 4e3a ad1f 28bc 9f23 293b 8bf2 e13b
000003d0: 9a27 8c3c 243c 973a 9554 73bc 2e73 df3b
000003e0: a32f d2ba 82da 833c d82b a43a 25d3 653c
000003f0: 11ec 2e3b a7ee 0aba 70e2 5bbc 957a 853c
0.00044573992 -0.012701818 0.008398325 0.0005795427 0.018461527 0.0011919573 -0.014679805 0.005506454
0.0018629907 0.016735023 0.0052578966 0.000638495 -0.0064289807 -0.0011686734 0.008276669 0.0018438651
0.008961333 -0.0021828336 0.0023822444 -0.0065871426 0.0018709877 0.0016632308 -0.0045029824 -0.001815231
0.009666831 0.0047659427 0.009677834 -0.00809167 2.5268491e-05 -0.0027431874 0.004082693 -0.011698812
0.004542229 -0.0007120187 0.016697587 0.0049321684 -0.016279167 0.007242573 -0.00092862104 0.018655753
-0.0010526167 0.016731588 -0.002067692 0.0015371965 -0.013231711 0.016979016 0.007604093 0.00396979
0.014943638 -0.0068638055 0.012549304 0.010175816 0.0073340656 -0.0015270229 -0.012226001 -0.014183219
0.023037734 0.00072785915 0.001537766 0.003185128 -0.0017269392 0.015495205 0.0011127049 -0.001685105
-0.012151044 0.015529912 0.007868736 0.0040890644 0.017759148 -0.007305614 -0.0029933848 0.018469026
0.0015600516 0.0068619754 -0.01173666 0.014568747 0.008926061 0.002167635 0.010428082 -0.012412711
0.008616383 0.01426498 0.002091066 -8.691334e-05 -0.011837677 -0.008565071 0.023038499 -0.005616083
-0.0034106467 0.0117983185 0.0067258663 -0.012704157 0.00048560998 0.002729221 0.01414681 0.006094607
-0.01655053 0.010061454 -0.0019383203 0.017821833 0.008586809 0.012304168 0.0070071304 -0.003146352
-0.010833515 -0.009571892 0.025623381 0.0017435839 -0.0068979594 0.0044399356 0.010676652 0.010216129
0.004275744 0.0011861668 -0.013130944 -0.011424193 0.024044517 -0.00071751367 -0.0006295137 0.00609071
0.009532126 0.0084227715 0.007512992 -0.0027883418 -0.012346319 -0.010279902 0.025229637 -7.172345e-05
-0.0004152164 0.0062287427 -0.0004200223 0.016283203 0.0003571903 0.0051927404 -0.013833405 0.01855876
0.0072881505 -0.001696804 0.013266801 -0.006997195 0.013226314 0.011454669 0.0045613293 -0.005383852
-0.013218862 -0.0053115366 0.022701122 -0.0012911394 -0.004976348 0.009656203 0.011369521 -0.003423745
0.0069488627 0.007720402 0.002980169 -0.009802501 0.010159978 0.0072140475 0.00010388012 0.022767209
0.0026684133 -0.014220622 0.004365906 0.007540415 0.015668463 -0.00019004622 -0.014328527 0.009223696
0.0016586353 0.013142879 0.0014766202 -0.014786163 0.0017983065 0.003992667 0.015236542 0.0040135123
-0.01242529 0.014436905 -0.002490266 0.014700136 0.0014900827 -0.011261063 0.0055839336 0.008087008
0.017371157 -0.0014855623 -0.015260481 0.0052271998 0.0010317976 0.01377007 0.0029076478 -0.016412914
0.0023217555 0.0041146004 0.014034261 0.0058970023 -0.014527365 0.006654587 0.0024253007 0.02029927
-0.0022316773 -0.013188724 0.007752521 -0.00064626976 0.019195564 0.00022309409 -0.013910109 0.0054709665
0.004682838 0.018967925 0.00010092249 0.01982781 -0.0026494665 0.0046983575 -0.0020737634 0.017264625
0.017301375 -0.0067248577 0.01419182 -0.015027812 0.002189526 -0.014796869 0.008153743 0.0020974732
0.016366769 0.005664795 -0.013548923 0.0069490965 -0.002874576 0.015608771 0.0047012977 -0.012926833
0.007396833 0.0021309117 0.016698355 0.0018368979 -0.0162063 0.0064636082 0.000981525 0.014908907
0.0007869918 -0.010261458 0.0025808585 0.0068953685 0.017108727 0.0011538309 -0.014851709 0.0068191504
-0.0016035925 0.016095404 0.0012525273 0.014027392 0.0026691 -0.0005299844 -0.013420686 0.016293803

regularization f8 []
00000000: 7b14 ae47 e17a 843f
0.01
