Aufgabe 2/recommendation_model.npz (npz, 13311 bytes, 3 tensors)

user_factors f4 [4, 10]
000000 72 0b 41 41 f0 52 5f 41 be e2 7f 41 c0 0d 8d 41
       12.065294 13.957748 15.992857 17.631714
000010 f4 06 dd 40 76 1d 19 41 08 57 34 41 63 ed 8c 41
       6.907099 9.569693 11.271248 17.615911
000020 b2 36 a0 3e 96 cc 98 41 82 f9 05 c1 88 38 b0 c0
       0.3129173 19.099895 -8.373415 -5.506901
000030 e8 65 72 41 62 d2 08 41 09 13 2d 41 f5 01 b8 40
       15.149879 8.551363 10.817147 5.750239
000040 00 cd a3 40 78 97 8c 41 1f 44 dc c0 04 ff 9b be
       5.1187744 17.57396 -6.8833156 -0.30468
000050 9d 83 1a 41 41 aa bc 41 4a f8 b3 3f 3b d2 9c 40
       9.657132 23.583132 1.4060147 4.900663
000060 8e 48 ed 40 ba 3c a7 41 96 c5 65 40 c5 46 39 41
       7.415107 20.904652 3.5901847 11.579778
000070 af ad 89 41 61 fe 89 40 d4 9d 7d 41 52 2f fb c0
       17.209806 4.312302 15.851032 -7.8495264
000080 72 71 02 41 47 8c e3 3f 51 d2 98 41 b5 6e 22 c1
       8.152697 1.7777184 19.102694 -10.152028
000090 5f 56 85 41 56 ab 00 c1 72 82 4f 41 c5 b0 84 41
       16.667173 -8.04183 12.969347 16.586313

item_factors f4 [251, 10]
000000 ea 97 b5 3c c5 79 6a 3c 17 ba 6a 3c ee c5 22 3c
       0.022167165 0.014311259 0.014326594 0.009934885
000010 d6 62 c8 bc 70 b2 70 bc 32 b2 5d 3b b0 72 20 3c
       -0.024461191 -0.01469098 0.0033828137 0.009792969
000020 c2 fc 93 bc 4f fe 47 3c 28 0f da 3b 5a 27 33 bc
       -0.01806486 0.012206628 0.006654639 -0.010934675
000030 76 4f c1 3b 8c 0f 60 bb e7 c6 99 3c 0c dc 02 bb
       0.005899365 -0.0034188954 0.018771602 -0.0019967584
000040 7b 46 b3 3b 96 a5 39 bc 1c 72 41 3c d7 bc 4e 3b
       0.0054710484 -0.011330983 0.011806991 0.0031545663
000050 9f 8b 87 3b 25 cf 50 bc 78 0e a8 3b 8a f6 b6 bb
       0.004136517 -0.0127447 0.005128678 -0.005583589
000060 3f 45 73 3c 2d 83 75 bb 16 9b d9 3b 4b ab e4 bb
       0.0148480525 -0.003746222 0.006640802 -0.0069784275
000070 01 c4 84 3c 6b 28 cd 3b f5 d3 c3 3c 58 d9 0e 3c
       0.016206743 0.0062609217 0.02390478 0.008718811
000080 27 84 25 3c 06 27 81 3c d1 99 db bc 2c 94 39 bc
       0.010102308 0.015765678 -0.026806744 -0.011326831
000090 8f b4 a6 3b fc ed 28 3c 10 9d 83 bc d6 18 34 3c
       0.005087442 0.010310646 -0.016066104 0.0109922495
0000a0 98 12 a1 bb ea 19 3a 3c 73 4a f6 bb 23 51 4c bc
       -0.0049155466 0.011358717 -0.0075161993 -0.012470516
0000b0 9e 02 74 3c 29 b9 8b 3c f6 fb 91 3b 1d a2 b0 3b
       0.014893202 0.017056065 0.004455085 0.005390419
0000c0 09 7e a4 3c 35 c7 16 bc 68 0d b5 bc eb 3b 8c bc
       0.02007963 -0.009202768 -0.02210112 -0.017118415
0000d0 fb 06 61 3c fe f5 85 bb a8 a5 bf 3c 71 bc 5f 3c
       0.013734574 -0.0040881624 0.02339442 0.013655768
0000e0 a8 c9 b3 3a 1f 1c 51 3c dc bc 2c 3b e1 f5 15 bc
       0.0013716714 0.012763052 0.0026357686 -0.00915286
0000f0 65 49 9e bb ab 6a 26 3c 9c 59 bc ba a4 78 23 bc
       -0.0048305267 0.010157268 -0.0014369967 -0.009977493
000100 c3 9a 51 3c 0e 74 a4 3c 81 ff 0f 3b 87 0a 8e 39
       0.012793246 0.02007487 0.002197236 0.00027092194
000110 60 d3 b3 3c 6b 2a 2c bc 28 ee a7 bb 71 b6 44 3c
       0.021951377 -0.01050816 -0.005124826 0.012006388
000120 01 33 72 bb de 39 b7 bb 00 6f 66 3c 27 28 52 3c
       -0.003695667 -0.005591615 0.01406455 0.012826956
000130 b1 68 ca b9 83 18 87 3b 79 20 cf 3c 83 cc 50 bc
       -0.00038606444 0.004122795 0.025284039 -0.012744072
000140 36 e9 9a bc 89 21 91 bc e0 a9 33 3c 73 16 87 bb
       -0.018910032 -0.017716186 0.010965794 -0.004122549
000150 ca fc bb 3c 7c db 67 3c 15 b4 cb 3b c0 79 69 3c
       0.022947688 0.01415145 0.006216536 0.014250219
000160 08 34 be 39 e2 8a 4f bc 3f d4 bc 3c 77 d6 46 3c
       0.0003627839 -0.01266739 0.023050426 0.012136093
000170 4f 15 4d 3c 42 d2 86 3c a5 0e b6 bc 55 b8 42 bc
       0.012517287 0.01645768 -0.02222378 -0.0118847685
000180 7a d4 cf 38 61 17 d3 3b d2 31 97 bc d3 32 3d 3c
       9.910106e-05 0.006441996 -0.018456373 0.011547762
000190 13 6e a8 bc 7d 00 61 bc 06 e3 5b 3c 9e e5 63 bb
       -0.0205603 -0.013733027 0.013420826 -0.0034774314
0001a0 b4 ca ce 3c 32 f9 04 3c 1a 63 92 3a d4 52 77 3c
       0.02524314 0.008116053 0.0011168451 0.015095431
0001b0 1c 6a 18 3b 69 d7 51 bc 04 e5 9e bc d7 0f 81 bc
       0.0023256605 -0.012807705 -0.019396313 -0.015754623
0001c0 e6 03 79 3c 4b 05 2f bb c6 80 cc 3c 7d f4 7a 3c
       0.015198683 -0.0026706036 0.024963748 0.01531708
0001d0 8c d8 3c 3b 58 07 16 3c 45 c7 53 ba c3 22 5a bc
       0.0028815595 0.009157024 -0.00080787047 -0.013313952
0001e0 98 75 bb bc 5e 62 5e bc a4 44 1b 3c fe 7e 28 3a
       -0.022883222 -0.013573257 0.009476814 0.0006427615
0001f0 c4 d7 d6 3c af 7d 32 3c 8d 6a c4 3b 61 ee 3e 3c
       0.026225932 0.010894223 0.005994147 0.011653514
000200 00 2b 48 39 72 e6 5a bc 43 0a 9f ba e0 a2 c0 3b
       0.00019089505 -0.0133606065 -0.0012133796 0.005878791
000210 1a 3c b5 bb 1e b7 aa bb 9f d2 6c 3c c5 6a a2 3c
       -0.0055308463 -0.0052098176 0.014454513 0.019826302
000220 3f a7 6f bb 40 f2 55 3b 74 dd c0 3c 8b 62 2b bc
       -0.0036568192 0.0032645613 0.023543097 -0.010460506
000230 32 0c c9 bc 0b 2c 83 bc 2e 1d 12 3c 4b 1b 3c 3b
       -0.024541948 -0.016012212 0.00891809 0.0028702791
000240 f7 71 cd 3c a8 d5 1a 3c a4 54 b7 3a 9b 7d 63 3c
       0.025078757 0.009450354 0.0013987017 0.013884927
000250 08 80 9e 3b b8 5a 2a bc ea 60 be bb f8 18 37 ba
       0.00483704 -0.010397606 -0.005809893 -0.00069846166
000260 e9 63 b4 3c 83 b6 59 3c cf bd 48 3b 7d a6 10 bb
       0.022020297 0.013288143 0.0030630713 -0.002207189
000270 68 91 aa 3b 11 99 a1 3c 58 82 80 bc d8 fe 9d 3b
       0.005205322 0.019726308 -0.015687153 0.0048216395
000280 b3 1b c4 3c d7 a1 43 3c c3 f4 64 3c 5d dd 85 3c
       0.02393899 0.011940441 0.013974371 0.016340906
000290 97 36 c3 bc 78 9e 1d bc 9f c8 77 3b 55 d4 8c 3b
       -0.023829741 -0.009620301 0.0037808788 0.004297773
0002a0 d2 7a a0 bc 51 26 18 3c 32 e3 d5 3c 78 0d 5d 3c
       -0.019589815 0.009286479 0.026109312 0.013491981
0002b0 90 76 64 3c d5 18 64 3c 4c 74 b0 bc 05 6d 7b bc
       0.013944283 0.013921936 -0.02153983 -0.0153458165
0002c0 7c 06 08 bb 05 ff 17 3c 55 61 9a bc f1 9f 22 3c
       -0.0020755818 0.00927711 -0.01884524 0.009925828
0002d0 02 df bb 3c ce 3e 7a 3c 7c c9 56 3c 3a 92 1e 3c
       0.022933487 0.015273763 0.013109561 0.009678418
0002e0 36 f6 ae bc d1 88 43 bc fd 69 7e 3b 3c 42 e5 3b
       -0.021357637 -0.011934475 0.0038820498 0.006996421
0002f0 c9 bb b7 bc b7 9d 46 3c b8 e4 98 3c 98 a6 70 3c
       -0.02242841 0.012122563 0.01866375 0.014688157
000300 00 79 64 3c a4 fb 83 3c 93 52 c8 bc f9 10 69 bc
       0.013944864 0.016111203 -0.024453437 -0.014225238
000310 bc a0 7c 3b 0a e3 c4 3b 70 05 85 bc 72 c0 3f 3c
       0.0038547954 0.0060085105 -0.016237944 0.011703597
000320 16 ab b5 3c 80 bf 6c 3c 8c 12 6d 3c b3 c5 8b 3c
       0.022176307 0.014449954 0.014469754 0.017062044
000330 70 cd a5 bc 56 f8 4d bc 82 37 fa ba a5 29 83 3b
       -0.020239562 -0.012571415 -0.0019090029 0.004002767
000340 53 a2 9e bc 79 ff 38 3c db ea 0e 39 9d f5 2c ba
       -0.019364512 0.011291378 0.00013629666 -0.00065978785
000350 d4 ee 97 bb fa 5f 39 bc 06 72 04 3d 1b fd 72 3c
       -0.004636625 -0.0113143865 0.032335304 0.014830853
000360 c4 be 53 3c e4 13 c5 bb 94 18 0a 3d 6c 4a e8 bb
       0.0129239 -0.006014334 0.033714846 -0.00708895
000370 78 40 9c 3c 33 ac 54 3c a4 bb 21 3c be 0a 5a 3c
       0.01907371 0.012980509 0.009871397 0.013308225
000380 a9 a4 b4 bc 0f 1a 59 bc e3 1b 8f 3a 1a 19 14 3c
       -0.022051172 -0.013250842 0.0010918345 0.009039188
000390 38 4d 92 bc a9 ac 84 3c 59 0b b4 3c e1 a1 5f 3c
       -0.017859086 0.016195612 0.021978067 0.013649435
0003a0 91 8a 3f 3c ee b3 83 3c 98 85 a2 bc 11 8a 41 bc
       0.011690752 0.016077008 -0.019839093 -0.011812703
0003b0 3b 31 44 ba 7f ea af 3b 37 1c a6 bc 5b 71 51 3c
       -0.00074841426 0.0053685303 -0.020277126 0.012783374
0003c0 9b d8 c3 3c 46 26 7e 3c 2a 59 82 3c 02 f8 57 3c
       0.023906996 0.015512055 0.015911657 0.013181688
0003d0 34 02 b2 bc c6 0d 7e bc 4c b8 76 ba 45 d2 f0 3b
       -0.021729566 -0.0155062135 -0.00094116176 0.007349285
0003e0 6f 9b 9a bc f5 18 26 3c 5a 57 e9 bb b3 0a 30 3c
       -0.018872945 0.010137786 -0.007121009 0.010744738
0003f0 26 37 df bb 3f c7 97 bb 77 36 85 3c 37 13 76 3c
       -0.006811994 -0.0046319063 0.016261322 0.01501923

regularization f8 []
000000 7b 14 ae 47 e1 7a 84 3f
       0.01
