Aufgabe 2/recommendation_model.npz (npz, 13311 bytes, 3 tensors)

user_factors f4 [4, 10]
000000 0f 2b 23 41 40 fb 6e 41 6e fe 49 41 b8 69 f5 40
       10.198012 14.93634 12.624617 7.669155
000010 2b 52 4c 41 35 c4 83 41 02 04 d9 3e 6a 0b 90 40
       12.770061 16.470804 0.4238587 4.5013933
000020 01 31 a7 41 90 6f 73 41 58 36 1e 41 b2 d4 69 c1
       20.898928 15.214737 9.8882675 -14.614428
000030 cc ff 8e c0 3c 1b 43 41 29 0e de 40 7b 8e 89 c0
       -4.468725 12.194149 6.9392285 -4.2986426
000040 50 0f 9c 41 a9 d3 84 41 21 4b 1c 41 79 28 87 41
       19.507477 16.60335 9.768342 16.894762
000050 59 5d f2 41 84 b4 bd 41 3b a6 b3 40 5f 93 20 41
       30.29558 23.713142 5.614042 10.035979
000060 cf 65 ac 40 7b c4 ba 41 af f4 34 40 60 aa 2d 40
       5.387428 23.345938 2.8274343 2.7135239
000070 9f 4d c0 3d 6c fa 76 40 29 15 83 c1 0a 13 74 41
       0.09389805 3.8590345 -16.385332 15.254648
000080 89 ac cc 41 0a 37 47 41 46 f3 53 41 34 96 8b c0
       25.584246 12.450937 13.246893 -4.3620853
000090 6d e1 4e 41 22 e4 11 41 ca 9a 2f 3f 4e ba 07 c1
       12.930036 9.1181965 0.68595564 -8.482985

item_factors f4 [251, 10]
000000 7c a1 09 bc 34 ac 63 3b d2 bd 3a 3b 2f a4 dd bb
       -0.008400317 0.0034740092 0.002849449 -0.006763957
000010 f2 1d 26 3c 9c 95 e7 3b 51 15 88 bc e3 3d a1 3a
       0.010138975 0.0070673954 -0.016611727 0.0012301769
000020 af 36 f5 3c 4f 8d 41 3c 08 31 ec bb 57 7c 98 3b
       0.029933302 0.011813476 -0.0072079934 0.0046534943
000030 6d de 7c 3c 02 33 09 3c a8 14 63 3b f3 9c 74 bb
       0.01543389 0.008373978 0.0034649763 -0.0037324994
000040 b3 08 34 3c e2 18 78 3b b7 f5 be bb 5f a1 14 bc
       0.010988402 0.0037856628 -0.0058276313 -0.009071677
000050 b1 af 23 bc 4a 7a 09 3c 5a 71 32 3c 4e 80 8f 3b
       -0.009990619 0.008390972 0.010891283 0.004379309
000060 3c ce d3 3b 71 ce 28 bb a5 43 84 3c 48 90 f3 3a
       0.006463794 -0.0025757814 0.016145537 0.0018582428
000070 df 80 e7 bb 8a c4 dd bb e0 16 15 bc 7f 80 ab 3b
       -0.007064923 -0.006767814 -0.009099692 0.005233824
000080 a9 8d 14 39 1d f2 c8 bb e9 db 52 3c 1a 35 c1 3b
       0.00014167152 -0.006132378 0.0128698135 0.005896223
000090 ad 9b 8d bc 7e 14 89 3a 57 d4 ee 3c 26 78 4e 3c
       -0.017286146 0.0010458378 0.029153986 0.012601888
0000a0 4f 8b 9d 3c e6 9c 35 3c 91 2c 02 bb 90 8c 5c 3b
       0.019231467 0.011084771 -0.001986299 0.0033653118
0000b0 b2 74 4f bb 45 b5 c9 3b be 4d 34 3c 06 ae 22 3b
       -0.003165525 0.006155642 0.011004863 0.0024822964
0000c0 fa 22 78 bc 1f 68 04 bc dc 1b c9 3b e5 e3 0d bc
       -0.015145058 -0.008081465 0.0061373543 -0.008660291
0000d0 e2 77 da bb 16 f4 3b 3c 53 4d 87 ba 31 d1 db bb
       -0.006667123 0.011471769 -0.0010322727 -0.006708287
0000e0 fc ff 50 3c 84 d5 78 3c d5 a7 bd 39 44 a1 e2 3b
       0.012756344 0.015187625 0.00036173934 0.006916197
0000f0 27 19 9a 3c be fa 50 3c 5b 46 86 ba 68 49 cc 3b
       0.018810822 0.012755094 -0.0010244356 0.0062343366
000100 56 04 ac bb 5e 48 65 3b 3b de c3 3b 26 d2 c0 3b
       -0.0052495403 0.003498576 0.0059774197 0.0058844266
000110 bd c6 96 bc bf e0 6a bb 0d 63 a2 3c 49 b6 24 3c
       -0.018405313 -0.0035839526 0.019822622 0.010053226
000120 61 5e 3c bb 8b 36 12 3c 3d 87 d1 3a 4f c0 78 3b
       -0.0028742778 0.008924137 0.0015985739 0.0037956422
000130 cf 7e 97 3b 95 6d 18 3b 23 f0 91 bc e9 c4 e7 bb
       0.004623271 0.0023258675 -0.017814701 -0.007073034
000140 22 e6 f3 3b 38 2b 30 bc db 31 78 bb 43 46 0e 3c
       0.0074432055 -0.010752492 -0.0037871513 0.008683744
000150 10 be 94 3a 8e eb cf bb 2b 22 68 3c 8a 33 53 3c
       0.0011348147 -0.006345219 0.0141683025 0.012890706
000160 a5 f9 b8 ba 3c 97 02 3c 24 aa 24 bc e4 0d 35 3b
       -0.0014112486 0.007970627 -0.01005033 0.0027626688
000170 83 64 92 3b a5 e2 e6 bb 01 d1 28 3c d4 a9 12 3c
       0.0044675483 -0.007046061 0.010303737 0.008951623
000180 c3 8d 8d bc e0 83 bc 3a 85 70 d0 3c a2 0a 86 3c
       -0.017279511 0.0014382564 0.025444278 0.016362492
000190 e7 11 e4 3b ed 6e 50 bc 2c 2d 83 bb 2a 73 08 3c
       0.006960142 -0.012721759 -0.0040031876 0.0083282385
0001a0 77 52 a0 3b a3 e4 8a bb 15 f1 55 3c df 2c 5b 3c
       0.004892643 -0.0042386814 0.013057967 0.013377397
0001b0 07 4d 59 bb 9b 91 fa 3b ba 12 fb 3b bc cc 27 bc
       -0.0033157484 0.007646752 0.0076621445 -0.010241684
0001c0 7c bb 45 bb 8d 63 18 3c 16 3d 39 bb 09 85 db bb
       -0.0030171564 0.0093010785 -0.002826517 -0.0066992086
0001d0 36 d8 79 3c 16 5d 50 3c 4c b1 1f 3a ba 4a f0 3b
       0.015249303 0.012717506 0.0006091788 0.007333127
0001e0 68 9b bc 3b 8b 84 45 bc 4c e0 f4 ba ce 60 09 3c
       0.0057558306 -0.0120555265 -0.0018682568 0.008384896
0001f0 34 4c f6 ba e8 db 3f bb a4 1e 89 3c 02 27 3a 3c
       -0.0018791021 -0.0029275361 0.016738243 0.011361839
000200 4b 1e 32 bb 44 0f 23 3c 42 40 af 3c 52 fa 1e 3c
       -0.00271787 0.00995237 0.021392945 0.009703236
000210 d1 82 6f bb 91 b3 06 3c a3 dd 31 3b 67 6d 43 3b
       -0.0036546479 0.008221523 0.0027140162 0.0029819848
000220 87 5c fb 3b 1e 5f 9a ba 1f 90 69 bc fa a5 30 bc
       0.007670942 -0.0011777615 -0.014255553 -0.010781759
000230 54 e2 e1 3b cb 69 2e bc 26 f7 5b bb 62 72 f9 3b
       0.0068934355 -0.01064534 -0.003356406 0.0076125124
000240 76 1e 12 bb f4 04 9d bb 96 43 83 3c f7 cb 63 3c
       -0.0022295988 -0.00479185 0.016023438 0.0139036095
000250 f9 98 6e 39 fb 34 e4 3b a9 3f 5a bb 44 b5 20 bb
       0.00022754435 0.0069643236 -0.0033302105 -0.0024522105
000260 af fe 8e bb 13 2c dd 3b 64 9c 1f 3c 39 d3 26 bb
       -0.0043638567 0.006749639 0.009741876 -0.0025455488
000270 13 a1 88 bb 32 43 55 3c c7 ed d8 3c 45 3f cd 3c
       -0.004169592 0.013016509 0.026480569 0.025054583
000280 15 ab 41 bc 34 e9 03 3c f1 ff 8e ba 2d 68 13 bb
       -0.011820574 0.008051205 -0.0010910017 -0.0022492514
000290 a1 60 0f 3c 09 75 b3 3b 52 87 9c bc 37 27 18 3b
       0.0087510655 0.005476598 -0.019107495 0.0023216733
0002a0 75 12 de 3c e9 3d 8c 3c a0 37 27 bc 5c d4 b6 3b
       0.02710841 0.017119365 -0.010206133 0.0055795144
0002b0 14 c7 b7 3a ee a7 f6 bb fe 77 f0 3b 0c f6 04 3c
       0.0014021122 -0.007527343 0.007338523 0.008115303
0002c0 01 63 5e bc 8e b8 3d 3a 9d 10 fb 3c 8d 68 52 3c
       -0.013573409 0.00072372786 0.03064757 0.01284231
0002d0 64 51 12 bc a7 31 3e 3b 0a 5a 79 3a 57 3d d9 bb
       -0.008930538 0.0029021294 0.0009512013 -0.0066296267
0002e0 71 4d 87 3c 36 7e f1 3b a8 81 9b bc f1 7a d5 3a
       0.01651642 0.007369782 -0.018982723 0.001628725
0002f0 ed cf dc 3c 02 61 4e 3c 74 be 0c bc 60 8c d3 3b
       0.026954615 0.012596371 -0.008590329 0.006455943
000300 df df 5f 3b 65 d6 0c bc 03 82 35 3c ae fc 71 3b
       0.0034160537 -0.0085960375 0.0110783605 0.003692429
000310 fc b7 a6 bc 3c 91 ac 3b 15 3a cd 3c 82 03 93 3c
       -0.020351402 0.0052663367 0.02505211 0.017946009
000320 d7 9d 21 bc f8 9b 13 3a 8a 6a 85 3b 92 aa 69 bb
       -0.009864292 0.0005630846 0.0040715383 -0.0035654646
000330 10 14 33 3c 2a 1c 26 3c a9 38 9e bc a7 73 be 3a
       0.010930076 0.010138551 -0.019314127 0.0014530317
000340 92 b7 db 3c 7c 43 5a 3c c2 b1 54 3c c0 8b 6a 3c
       0.026820932 0.013321754 0.012981834 0.014315546
000350 39 2d 81 3c 25 2e 6f 3c 94 d3 28 3b 12 20 cf 39
       0.015768634 0.014598404 0.0025760876 0.0003950601
000360 ce b9 ab 3c 1e 82 96 3a 9a e3 c8 bc 52 69 58 bc
       0.020962622 0.001148287 -0.024522591 -0.013208704
000370 a2 ab 2a bc 45 38 95 3b 27 75 32 3a 77 40 37 bb
       -0.010416897 0.004553827 0.0006807618 -0.0027962008
000380 94 f3 73 3c 4a 1c c4 3b 12 ea bc bc c3 c5 66 3b
       0.0148896165 0.0059848176 -0.023060832 0.003521309
000390 6c 39 c3 3c 4d 08 8b 3c 29 37 25 bc 94 d1 58 3b
       0.023831092 0.016971732 -0.010083952 0.0033083903
0003a0 fe 6d 6f 3b f3 1b bf bb 20 ae 4e 3c b2 f0 f4 3b
       0.0036534066 -0.005832189 0.012614757 0.007474982
0003b0 7c 1e c0 bc bd d0 e8 3b f5 0f bc 3c b5 38 8f 3c
       -0.023452036 0.0071049617 0.022956828 0.017483095
0003c0 7b 7a 0f bc 80 89 c5 3b 8a ed 87 3b 26 16 df bb
       -0.008757229 0.006028354 0.00414819 -0.00680806
0003d0 68 f0 0e 3c 2e 5a 85 3b ea 82 98 bc d4 93 15 3b
       0.0087243095 0.004069588 -0.018617112 0.0022823708
0003e0 71 84 d5 3c 81 4b 93 3c 20 5f 90 3c d2 f3 35 3c
       0.02606413 0.017980339 0.017623484 0.011105495
0003f0 ce 8c 93 bb 04 6c d9 3b 93 b1 ad 3a ef 38 d4 3b
       -0.004502869 0.006635191 0.0013251774 0.0064765136

regularization f8 []
000000 7b 14 ae 47 e1 7a 84 3f
       0.01
