Aufgabe 2/recommendation_model_ranked.npz (npz, 23511 bytes, 3 tensors)

user_factors f4 [4, 20]
00000000: ae08 2840 cd90 f940 8931 efbf 53a4 4c40
00000010: f366 ad40 f6f2 4641 f62b a140 9401 6940
00000020: cb8e 2941 670c 3441 1ac3 09c0 0443 ec40
00000030: c1e4 2240 9df8 2940 245b 8440 5c37 dfbe
00000040: 6e56 7b40 41b4 bcbf d19b 423e 4cc3 c540
00000050: 2cbe f240 d728 9c3f e874 8f40 bbab 4e3f
00000060: 179a 0940 f695 58c0 8156 d040 146a 0841
00000070: 201a b840 c747 b93f 0818 0b3f 0edf 9d3f
00000080: deb3 1041 9415 72c0 5f5e 9c3f bd13 f540
00000090: c781 5e3f 7d95 5d3f 3f11 bf40 f047 be40
000000a0: 4c1e 5fbe 391a 87c0 553a 3c3f 2c04 aa40
000000b0: 1714 a3bf d65d 0141 31db bf3f fab5 f43e
000000c0: 0946 a7c0 5801 2c40 a86e 0f41 ed87 5840
000000d0: 8e96 02c0 9ea9 0941 982d ec40 7e9d b740
000000e0: 6855 ab40 1319 3541 c806 b240 1a07 96bf
000000f0: efdb 9d3e ad3a 7d41 d3cf 8041 72f3 b940
00000100: 60c0 6841 edf1 4bc0 6787 8abf 8345 a0c0
00000110: eab3 3c40 4561 c6c0 294e b840 b02e 1340
00000120: bec8 763e 40c5 3c41 7a86 1ec0 531d 06c1
00000130: 21e5 1540 4f10 9e3f 8c5a d9bf 8e90 3640
2.6255298 7.798926 -1.8686992 3.1975296 5.418817 12.434317 5.0366163 3.6407213
10.597362 11.253028 -2.152533 7.3831806 2.545212 2.6557992 4.1361256 -0.43596923
3.9271502 -1.4742509 0.19004752 6.18009 7.5857143 1.2199963 4.483021 0.8073079
2.15003 -3.384153 6.5105596 8.525898 5.753189 1.447503 0.54333544 1.2333696
9.043913 -3.782567 1.22163 7.6586595 0.86916775 0.86556226 5.970855 5.9462814
-0.21788901 -4.221951 0.7352651 5.3130093 -1.2740506 8.085409 1.4988767 0.47795087
-5.227299 2.687582 8.964516 3.3832963 -2.0404391 8.60391 7.3805656 5.737975
5.3541756 11.318622 5.563328 -1.1720917 0.3083186 15.826825 16.101477 5.8109674
14.546967 -3.186641 -1.0822572 -5.0084853 2.948481 -6.1993737 5.759541 2.2997246
0.24100015 11.798157 -2.4769578 -8.382159 2.34211 1.2348727 -1.6980758 2.852573

item_factors f4 [251, 20]
00000000: 837d b53b 0de7 083c c7af 46bc a961 a13b
00000010: fb18 1b3c 33d8 a13c a5c1 f23a 9dc3 a63b
00000020: 88f9 4d3c d30e bc3c 5175 01bc 2b41 2a3c
00000030: a7f0 45bb fc41 443a f7ae b03b b754 30bc
00000040: 2c7a 9a3b 7f88 bbbb fe93 e9bb 87ff 833b
00000050: 6cb2 ca39 600b 6b3c 527a 7e3c 294f 8e3b
00000060: 43b4 643c e121 5cbb f486 55ba c9b1 113b
00000070: 7137 80ba 75da 29bc e299 c43b 5fb8 1439
00000080: 8c53 b3ba bacc 293c 83e9 f6ba 197d fdbb
00000090: a4da 7cbb 49f8 913b 9e74 86bb b44f 823a
000000a0: a0c4 2f3b 6929 2e3c db15 8a3c 5614 fc3a
000000b0: 0822 803c 0d0c 34bb addc 273a 3275 ccbb
000000c0: 7713 85ba 97b1 f6bb bef7 253c 80c1 5abb
000000d0: 15c0 74bb f757 f33b 4709 8cbb 0554 08bc
000000e0: cf02 873b b2e2 a8ba 64d1 c63a a40a a83b
000000f0: 0000 0000 0000 0000 0000 0000 0000 0000
00000100: 0000 0000 0000 0000 0000 0000 0000 0000
00000110: 0000 0000 0000 0000 0000 0000 0000 0000
00000120: 0000 0000 0000 0000 0000 0000 0000 0000
00000130: 0000 0000 0000 0000 0000 0000 0000 0000
00000140: 0000 0000 0000 0000 0000 0000 0000 0000
00000150: 0000 0000 0000 0000 0000 0000 0000 0000
00000160: 0000 0000 0000 0000 0000 0000 0000 0000
00000170: 0000 0000 0000 0000 0000 0000 0000 0000
00000180: 0000 0000 0000 0000 0000 0000 0000 0000
00000190: 5d1a 863c a2eb 39bb c718 193c ed41 453b
000001a0: f7bd 663b ab74 a5bc 4962 463c 30bd 843c
000001b0: 0a8b 013c 7c89 e7bb e2dc c53a be12 f7b9
000001c0: 58f3 8c3c 634c 3fbc d9ad ab3a f98e 683c
000001d0: cee9 4a3b 492a 203c 2e7f 893c 3b81 6a3c
000001e0: 0000 0000 0000 0000 0000 0000 0000 0000
000001f0: 0000 0000 0000 0000 0000 0000 0000 0000
00000200: 0000 0000 0000 0000 0000 0000 0000 0000
00000210: 0000 0000 0000 0000 0000 0000 0000 0000
00000220: 0000 0000 0000 0000 0000 0000 0000 0000
00000230: 0000 0000 0000 0000 0000 0000 0000 0000
00000240: 0000 0000 0000 0000 0000 0000 0000 0000
00000250: 0000 0000 0000 0000 0000 0000 0000 0000
00000260: 0000 0000 0000 0000 0000 0000 0000 0000
00000270: 0000 0000 0000 0000 0000 0000 0000 0000
00000280: 2e55 b43c 9b02 aebb f818 553c d3e9 723b
00000290: 9e3d bb3b afae 94bc 0800 403c 2d7e 9c3c
000002a0: 2ef1 9f3b 6908 4ebb 6840 a03b 7d19 adbb
000002b0: 0582 6c3c 98ce 15bc d473 ae3b 5da9 6c3c
000002c0: 3d06 beba f8e0 0d3a 9428 843c 78ee 3a3c
000002d0: 69de 5c3b 4597 333c a70f 07bc a3c7 3cbb
000002e0: 9d28 0f3c 9a26 ca3c b41f d1ba f35b 5c3b
000002f0: e635 303c 9957 a63c f9ba 3dbc e4f2 fd3b
00000300: 5f2b 50bb 7c23 093a d8f5 f23b 8d8f f2bb
00000310: 4740 083c 40d8 f3bb f152 26bb bd84 f43b
00000320: 92fe 733c a37e 7dbb d355 2e3c 9baa 873b
00000330: 9af1 a03b 8cee 9dbc af4e 423c 5edc 9b3c
00000340: 92a8 e73b 3aef 32bb 323e b43b 1b4e d7bb
00000350: b456 9b3c 7284 30bc f929 cdb9 8458 723c
00000360: 9c32 8f3b 3978 c73b b09f 6f3c bf8f 473c
00000370: 7da6 883c a5cc 473a 50c9 6c3c af69 25bb
00000380: a37e f83a ea12 8abc 1471 3d3c 0549 793c
00000390: eabe de3b 0f8a d5bb 7979 e03b f4c1 003b
000003a0: 4257 843c 3e6c 62bc e13d d43b 2a26 a13c
000003b0: 2043 94bb 4e35 bb3b 3761 593c 80b3 423c
000003c0: 0000 0000 0000 0000 0000 0000 0000 0000
000003d0: 0000 0000 0000 0000 0000 0000 0000 0000
000003e0: 0000 0000 0000 0000 0000 0000 0000 0000
000003f0: 0000 0000 0000 0000 0000 0000 0000 0000
0.005538644 0.008355868 -0.0121268695 0.004924972 0.009466405 0.019756412 0.0018520845 0.005089237
0.0125717 0.022956287 -0.007901506 0.010391514 -0.0030203254 0.0007486639 0.005391951 -0.010762385
0.004714271 -0.0057230587 -0.0071282377 0.004028264 0.00038661377 0.014345974 0.015532093 0.0043429327
0.013958993 -0.003358953 -0.0008145415 0.0022231212 -0.0009782148 -0.010367026 0.0059997896 0.00014183063
-0.0013681515 0.010363752 -0.0018837902 -0.00773586 -0.0038582468 0.0044546467 -0.0041032573 0.0009941966
0.0026820078 0.01062999 0.016856125 0.0019232135 0.015641227 -0.0027473003 0.00064034277 -0.0062395567
-0.0010152896 -0.0075284946 0.010129867 -0.0033379495 -0.0037345935 0.0074262577 -0.004273567 -0.008320813
0.004120208 -0.0012884943 0.0015168604 0.0051282216 0.0 0.0 0.0 0.0
0.0 0.0 0.0 0.0 0.0 0.0 0.0 0.0
0.0 0.0 0.0 0.0 0.0 0.0 0.0 0.0
0.0 0.0 0.0 0.0 0.0 0.0 0.0 0.0
0.0 0.0 0.0 0.0 0.0 0.0 0.0 0.0
0.0 0.0 0.0 0.0 0.016369993 -0.0028369208 0.009344286 0.003009911
0.0035208443 -0.020197233 0.012108394 0.016203493 0.007906685 -0.00706595 0.0015095735 -0.00047125475
0.01720588 -0.011675927 0.0013098075 0.014194244 0.0030962112 0.009775707 0.016784277 0.0143130375
0.0 0.0 0.0 0.0 0.0 0.0 0.0 0.0
0.0 0.0 0.0 0.0 0.0 0.0 0.0 0.0
0.0 0.0 0.0 0.0 0.0 0.0 0.0 0.0
0.0 0.0 0.0 0.0 0.0 0.0 0.0 0.0
0.0 0.0 0.0 0.0 0.0 0.0 0.0 0.0
0.022013273 -0.005310369 0.013006441 0.003706564 0.0057141325 -0.018149702 0.011718757 0.019103134
0.004881046 -0.0031438118 0.0048904903 -0.0052825795 0.014435296 -0.009143494 0.0053238664 0.014444676
-0.0014497709 0.0005412246 0.01613263 0.011409394 0.0033701903 0.010961358 -0.008243478 -0.0028805516
0.00873771 0.02467661 -0.0015954883 0.0033624142 0.010755038 0.020305442 -0.011580222 0.007749902
-0.0031764132 0.0005231423 0.0074145608 -0.0074023665 0.008316106 -0.0074415505 -0.0025379027 0.0074621127
0.014892237 -0.0038680218 0.010640579 0.004140211 0.0049116137 -0.019278787 0.01185958 0.019025978
0.0070696557 -0.0027303235 0.0055005783 -0.00657059 0.018962242 -0.010773765 -0.0003913192 0.014791612
0.004370047 0.0060873297 0.014625475 0.012180268 0.01668095 0.0007621742 0.0144522935 -0.0025239994
0.0018958639 -0.016854722 0.011562604 0.015215163 0.006797661 -0.006516702 0.006850418 0.0019646855
0.016154889 -0.013819752 0.006477103 0.019671518 -0.0045246035 0.0057131415 0.013267807 0.011883616
0.0 0.0 0.0 0.0 0.0 0.0 0.0 0.0
0.0 0.0 0.0 0.0 0.0 0.0 0.0 0.0

regularization f8 []
00000000: 7b14 ae47 e17a 843f
0.01
