Aufgabe 2/recommendation_model.npz (npz, 13311 bytes, 3 tensors)

user_factors f4 [4, 10]
0	0x4172baaa	15.170572
1	0x41b4200f	22.515654
2	0x417ab52c	15.669231
3	0x4174c9e2	15.299288
4	0x415721a3	13.445712
5	0x412839e2	10.514132
6	0x406cb2d0	3.6984138
7	0x41bb050c	23.377464
8	0x4010dc4b	2.2634456
9	0x41047cfe	8.280516
10	0x40258738	2.586378
11	0x41053931	8.326463
12	0xc0926eb8	-4.5760155
13	0x41377bea	11.467752
14	0x41a1700a	20.179707
15	0x41b228c7	22.26991
16	0x413c19bd	11.756284
17	0xc0211ffb	-2.517577
18	0x40fe03cb	7.937963
19	0xc0b432d1	-5.631203
20	0x4098e7db	4.7783027
21	0x3f279c5e	0.6547297
22	0x4161cce8	14.112526
23	0x40db9e84	6.8631
24	0xbf81855a	-1.0118821
25	0x3fbb6b8b	1.4642195
26	0x411064da	9.024622
27	0x41090b01	8.5651865
28	0x41b111b1	22.133638
29	0x41efd0d3	29.976965
30	0x41ae75a6	21.807446
31	0xbe85bb7c	-0.26119602
32	0x41b9d6a1	23.2298
33	0xc114dd99	-9.304101
34	0xc08d79c1	-4.4211125
35	0xbe8cdf8c	-0.27514303
36	0x41c8d108	25.102066
37	0xc04e54ce	-3.223926
38	0xc0c4a75a	-6.1454287
39	0xc1075c75	-8.4600725

item_factors f4 [251, 10]
0	0x3b98d174	0.0046636406
1	0x3c8c2665	0.017108152
2	0x3c0b2884	0.008493546
3	0x3b8a5505	0.004221561
4	0x3b478b86	0.0030448153
5	0xb9b08df0	-0.00033675088
6	0xbc247e9f	-0.010039954
7	0x3c8397e0	0.01606363
8	0xbc0bd0e2	-0.008533688
9	0xba9f4293	-0.0012150578
10	0x3c33214e	0.010933233
11	0xbb9119f5	-0.004428143
12	0x3c49550b	0.012288342
13	0xbbc8b213	-0.0061247437
14	0x3a21ccfd	0.0006172208
15	0xbb6c1af9	-0.003602682
16	0x3c592f47	0.013255901
17	0xbba7f499	-0.005125594
18	0xba829cb6	-0.0009964916
19	0xbbf93524	-0.007605212
20	0x3c22f5de	0.009946315
21	0x37d1965b	2.4984756e-05
22	0x3c1d0ee4	0.00958607
23	0xbbc25ae2	-0.005931244
24	0xbbb4e38a	-0.005520289
25	0xba899128	-0.001049553
26	0x3c80f6c6	0.01574267
27	0xbbae9e97	-0.005328964
28	0xbafcfa6b	-0.0019300705
29	0xbbda2996	-0.0066577895
30	0x3c3875c4	0.011258546
31	0x3c6b8c26	0.014376676
32	0x3aa48657	0.0012552243
33	0x3bcca1f6	0.006244893
34	0x3b8b6cdf	0.004254922
35	0xbb8fa90b	-0.004384165
36	0xbbfabd95	-0.0076519945
37	0x3c969963	0.018383687
38	0xbc0db6c9	-0.008649536
39	0xb9ab9872	-0.00032729242
40	0xbb907b32	-0.0044092173
41	0xbbe3e44d	-0.006954706
42	0x3bda79d5	0.0066673555
43	0x3b1d8717	0.0024036819
44	0xba91215c	-0.0011072564
45	0xbac7046b	-0.0015183812
46	0x3bf91378	0.007601198
47	0xbb88325b	-0.0041563935
48	0x3c83ca3b	0.016087642
49	0x3c900863	0.017582124
50	0xbb2bab61	-0.002619468
51	0xbb24e554	-0.0025161104
52	0xbb9c38ef	-0.004767529
53	0x3b905cdd	0.0044056014
54	0x3c59d01c	0.013294246
55	0x3c94ed80	0.018179655
56	0x3c214e67	0.009845353
57	0xbc3caf8a	-0.011516461
58	0x3c46720e	0.012112154
59	0xbbf0ba2f	-0.0073464136
60	0xbb659cf5	-0.003503618
61	0xbbd44d21	-0.006478921
62	0x3b69bdf8	0.0035666209
63	0xb9dce885	-0.0004213491
64	0xbb7d6cf0	-0.0038669668
65	0xb9d0b494	-0.00039807393
66	0x3c0fa948	0.008768387
67	0x38e0e6a1	0.0001072411
68	0x3c9f9d68	0.019484237
69	0x3c7ad151	0.015308694
70	0xbade9af3	-0.0016983434
71	0xbbfe7d72	-0.007766419
72	0x3ba877f6	0.0051412536
73	0xba1e9d26	-0.00060506386
74	0xbb3638b3	-0.0027804791
75	0x3a1f5502	0.0006078036
76	0x3bbdaafb	0.0057882047
77	0xbabca027	-0.0014390991
78	0x3ca2899d	0.01984101
79	0x3c7c84fa	0.015412563
80	0x3b04b2ed	0.002024825
81	0xbb97ae9c	-0.0046289694
82	0xbc1dd72a	-0.009633819
83	0x3be8a036	0.0070991768
84	0x3c65d47d	0.014027712
85	0x3c66ebab	0.014094274
86	0x3c3edfe7	0.011650062
87	0xbc1fc5aa	-0.009751717
88	0x3c57ae38	0.013164096
89	0xbc027c62	-0.0079642255
90	0x3c1b7626	0.009488618
91	0x3c8cf84c	0.01720824
92	0x3b9ed8a3	0.0048476025
93	0x3c01980a	0.007909784
94	0x3b449bab	0.0030000012
95	0xbac0213c	-0.0014658342
96	0xbc1e0b2d	-0.009646219
97	0x3c481ebd	0.01221436
98	0xbc539504	-0.012913946
99	0x3b4e4ddf	0.003147952
100	0xbb8d80a2	-0.0043183127
101	0x3a48ec7b	0.0007664633
102	0xbc1593fd	-0.009129521
103	0x3bbb917d	0.0057241307
104	0x3c0a552e	0.00844316
105	0x3ca50472	0.020143721
106	0x3c77923b	0.015110548
107	0xbc39e226	-0.011345422
108	0x3bdcc1cb	0.006736969
109	0xbb59a89a	-0.0033212067
110	0x390cb9aa	0.00013420606
111	0xbbef2282	-0.007297815
112	0xbb94d554	-0.0045420323
113	0x3b96851f	0.004593506
114	0x3c8ebd54	0.017424263
115	0x3c933046	0.017967355
116	0x3c0436e3	0.008069727
117	0xbc3a4a8f	-0.011370315
118	0x3c24ba93	0.010054248
119	0xbbb9a3f5	-0.005665297
120	0xbb9fe994	-0.0048801396
121	0xbba9a884	-0.0051775593
122	0xbbd77783	-0.006575526
123	0x3b427daf	0.0029676964
124	0x3c8ec365	0.017427156
125	0x3c8227a9	0.015888052
126	0x3c64d2f1	0.013966308
127	0xbbfb6c39	-0.0076728133
128	0x3c136f2d	0.008998674
129	0xbbb5609e	-0.0055351993
130	0x3b7fffe7	0.0039062442
131	0xbbdb7820	-0.0066976696
132	0xb905eb3b	-0.00012771499
133	0xbb4d82b9	-0.0031358434
134	0xbb287b41	-0.002570823
135	0x3983120b	0.0002499971
136	0x3bb937de	0.005652412
137	0xbadcf5ae	-0.0016857886
138	0x3ca1d2d0	0.019753844
139	0x3c91750e	0.017756011
140	0xbb0993aa	-0.0020992556
141	0xbb1587df	-0.0022816581
142	0xbbe92772	-0.007115298
143	0x3ba5a3f6	0.005054946
144	0x3c72c96f	0.014818533
145	0x3c8cc070	0.017181605
146	0x3c46e63a	0.012139851
147	0xbc505344	-0.012715165
148	0x3bf3d32b	0.0074409447
149	0xbb568e34	-0.0032738568
150	0x3bfcb937	0.007712509
151	0x3c380803	0.011232379
152	0xba1ac56c	-0.0005904052
153	0x3c60bfaa	0.013717571
154	0x3c9c4283	0.019074684
155	0x3c56c254	0.013107855
156	0x3a9242dd	0.0011158843
157	0x3b67142f	0.0035259833
158	0x3a914c0c	0.0011085286
159	0xbbd537f9	-0.0065069166
160	0x3c1d9a0c	0.009619247
161	0x3c924ac1	0.017857911
162	0x3bedcb9c	0.007256938
163	0x3b502796	0.0031761876
164	0x3ba22828	0.0049486347
165	0xba971394	-0.001152622
166	0xbc55ef17	-0.013057492
167	0x3c5166c4	0.012780849
168	0xbc030527	-0.007996834
169	0x39b5f802	0.0003470779
170	0x3bd6c982	0.0065547833
171	0x3c380f75	0.011234154
172	0x3bd2a23d	0.0064280317
173	0x3c1ea4c4	0.009682838
174	0x3b9731b2	0.0046140784
175	0xbb5253e6	-0.0032093464
176	0xbbff555c	-0.007792158
177	0x3c982d97	0.018576426
178	0xbc2dce78	-0.010608308
179	0xbaae5b8f	-0.0013302433
180	0x3c2fa0da	0.010719502
181	0x3c9a422d	0.018830383
182	0x3b47f3c7	0.0030510293
183	0x3bec02e0	0.007202491
184	0x3b24fce4	0.0025175149
185	0xbb8774ed	-0.0041338117
186	0xbc15b9d7	-0.009138546
187	0x3c5d02df	0.013489454
188	0xbc0d9ac7	-0.008642859
189	0x39c09045	0.00036728583
190	0x3c2ead10	0.0106613785
191	0x3c48204c	0.012214731
192	0x3bd51578	0.0065028034
193	0x3b7363bf	0.003713831
194	0x3b54bde1	0.003246181
195	0x3b14749a	0.0022652508
196	0xbc58b15a	-0.013225878
197	0x3c90813e	0.017639752
198	0xbc03d984	-0.008047465
199	0xba818338	-0.0009881025
200	0x3bd5ba2c	0.0065224376
201	0x3c83f5ca	0.016108412
202	0x3bc89c52	0.0061221505
203	0x3bbbe072	0.005733543
204	0x3b280fac	0.0025644107
205	0xbb0ce544	-0.0021498958
206	0xbc11bcac	-0.008895081
207	0x3c903a2f	0.01760587
208	0xbbf04d1e	-0.007333412
209	0xbb18016d	-0.002319421
210	0x3c0405cc	0.008058023
211	0xbc181a89	-0.00928367
212	0x3c89383e	0.016750451
213	0xbbcf17e5	-0.006319987
214	0xbbd6cc42	-0.006555111
215	0x3a8005ba	0.0009767332
216	0x3ca3e32f	0.02000579
217	0xbc0b8a0a	-0.008516798
218	0x3c792546	0.015206641
219	0x3c302a69	0.010752299
220	0x3bb44ed2	0.00550256
221	0x3c7aa770	0.015298709
222	0x3c04aced	0.008097869
223	0x3c07573d	0.008260545
224	0x3bf7d6bc	0.00756344
225	0xbbcdd467	-0.006281424
226	0xbc0c2a37	-0.008554987
227	0x3c701d72	0.014655458
228	0xbc2207df	-0.009889572
229	0xba2ba886	-0.0006548244
230	0x3bcfff88	0.0063476004
231	0x3c36a5c0	0.011147916
232	0x3bbbf1f9	0.0057356325
233	0x3bb01854	0.005373994
234	0x3bb6458a	0.005562489
235	0xbb463539	-0.0030244126
236	0xbc01153d	-0.007878599
237	0x3cb2a502	0.021807197
238	0xbbf6e9d6	-0.0075351996
239	0xbb4dab20	-0.0031382516
240	0x3c2ea4e5	0.010659431
241	0x3c4efa14	0.012632865
242	0x3ba8fe7b	0.0051572896
243	0x3bf5f3a4	0.007505851
244	0x3bd24720	0.00641717
245	0xbb92b801	-0.0044775014
246	0xbc290552	-0.01031621
247	0x3c869431	0.016428085
248	0xbc0dae2e	-0.008647485
249	0xba667477	-0.00087911583
250	0xbaa60cb4	-0.0012668581
251	0xbb9951cd	-0.004678941
252	0x3b0059f3	0.0019584864
253	0xba6bebb9	-0.0008999664
254	0xba15b36e	-0.0005710636
255	0xbb5b0a81	-0.003342301

regularization f8 []
0	0x3f847ae147ae147b	0.01
